model/model.pth (torch, 16799 bytes, 4 tensors)

linear1.weight f4 [256, 11]
000000 13 2a b2 3e bd f8 20 3c 32 1e 6d 3e fe d3 ed 3b
       0.34797725 0.009824929 0.2315605 0.0072579375
000010 8a f2 88 3d 70 f9 a5 bd 61 b7 af 3e 12 da 94 bb
       0.06686886 -0.08104217 0.34319595 -0.0045425976
000020 34 5d 5a be fd d4 9e bc f7 ea f8 be 9a 06 d6 be
       -0.21324617 -0.01938867 -0.48616764 -0.41801912
000030 51 7f 06 be 2b f8 03 3f 72 9c f0 3d 8b f0 bd be
       -0.13134505 0.5155055 0.117485896 -0.37097582
000040 14 89 39 3b 4a 51 b2 bd f1 cd 21 3e 52 d6 97 be
       0.0028310465 -0.08706911 0.15801217 -0.296557
000050 08 ee 90 3d d4 2e 84 be 36 3d f5 3e ec 66 90 3b
       0.07076651 -0.25816977 0.47898263 0.0044068005
000060 50 71 d1 be 06 9b 4c bc f3 72 84 3e b1 66 39 3e
       -0.40906763 -0.012488132 0.2586895 0.1810558
000070 a8 be 03 bf 46 2a 92 be 58 e6 55 be 52 f0 91 be
       -0.51462793 -0.28547877 -0.2088865 -0.28503662
000080 4d 86 fc 3e 18 9c 47 bd 10 f9 a8 bd a2 59 01 3e
       0.49321213 -0.048732847 -0.0825063 0.12631848
000090 cf c8 ca bd dc 95 34 be 0e 97 3a be ce f4 8a be
       -0.099015824 -0.17635292 -0.18221685 -0.27139896
0000a0 3b 60 dc bd ce 02 0a be 4d cc e7 3d ba ca b2 bd
       -0.10760542 -0.13477632 0.11318264 -0.08730073
0000b0 92 71 08 3f e5 33 e5 bc e0 d5 12 bf ac 90 f3 be
       0.53298295 -0.027978847 -0.573576 -0.47571313
0000c0 e1 c6 33 3e 34 7a 93 3e 5a 58 9d 3d d7 7c f9 3e
       0.17556335 0.2880417 0.07682867 0.48728058
0000d0 10 89 1a 3e d2 79 a8 bd 96 98 46 3e 02 94 03 3d
       0.15091348 -0.082263604 0.19394144 0.032123573
0000e0 d7 59 28 3d 63 fb 01 3f 3d 83 99 3e c6 1d b1 be
       0.041101303 0.5077421 0.2998294 -0.34593028
0000f0 bb db 8c 3e 6b c6 2f be f2 d4 3e be 93 e7 35 3e
       0.2751139 -0.17165534 -0.1863592 0.1776412
000100 36 63 c2 3e 98 87 08 be 62 e2 ce bd d6 fe 76 3d
       0.37966317 -0.13332975 -0.10101773 0.060301624
000110 a0 65 d1 3c bc c0 7d bd 08 12 c6 bd 2d 28 34 be
       0.025561154 -0.061951384 -0.09671408 -0.17593451
000120 42 6a 57 be 91 1e 44 be 26 e7 30 3e 27 11 95 be
       -0.21036628 -0.19152285 0.17275676 -0.2911465
000130 91 c2 76 be 70 23 e2 bd 6d 4e 80 3e a5 af ba bc
       -0.24097659 -0.110419154 0.25059834 -0.022788832
000140 b2 46 97 be 42 81 c4 3e 21 ef 23 bf 90 66 f6 3e
       -0.29546124 0.38379866 -0.64036757 0.48125124
000150 bb 88 59 bf 5d 31 89 3e 28 52 39 bf b6 01 7d 3d
       -0.8497426 0.26795474 -0.72390985 0.06176921
000160 1e 20 84 3e c2 75 09 3e c2 1f c1 3e 7c 65 8e be
       0.25805753 0.13423827 0.37719542 -0.278118
000170 c3 f0 51 3e 1e 8b e5 be c2 78 68 3e eb 68 d2 3e
       0.20502 -0.448327 0.22702315 0.4109567
000180 34 fa 4f be 18 bb f3 3e 00 e9 8c 3e e8 eb 5d bd
       -0.20310289 0.4760368 0.27521515 -0.054180056
000190 60 6d e7 bc f8 9b ea bd b2 f1 81 be 53 b3 14 3e
       -0.028250396 -0.1145553 -0.2537971 0.14521532
0001a0 da 22 27 be 06 1d f3 3d ed 50 f6 bd 94 c1 39 bd
       -0.16321889 0.1187077 -0.12027154 -0.045350626
0001b0 79 80 d3 bc f0 16 57 be 3f dc 03 be 75 24 8a 3e
       -0.025818096 -0.21004844 -0.12876986 0.2698094
0001c0 43 d0 7e be 98 d5 be 3e 45 b1 01 bf 4e 81 44 be
       -0.24884133 0.37272334 -0.50661117 -0.19189951
0001d0 da 66 d2 3e eb a6 3e 3e e2 9e ce be e4 39 4a bf
       0.41094095 0.18618362 -0.40355593 -0.78994584
0001e0 13 d4 3e 3e 20 2c 9a bc cb b1 44 be 00 80 01 bf
       0.18635587 -0.018819869 -0.19208448 -0.5058594
0001f0 64 ee 55 bf 60 91 a0 3e 30 d0 50 bf eb b2 67 be
       -0.8356688 0.31360912 -0.8156767 -0.22626846
000200 c1 24 2c bf b8 28 f1 3e c2 33 09 be 6e ce 4d bf
       -0.6724358 0.47101378 -0.1339865 -0.8039311
000210 ce 15 a1 bc 7a db fd bd 99 8a 97 be ac c9 43 be
       -0.019663718 -0.123953775 -0.2959793 -0.191199
000220 9e 3e a1 bd 38 00 97 3d dc f2 f8 3d 60 46 38 3b
       -0.078732714 0.073730886 0.12155697 0.0028118119
000230 fb 43 84 bb 7c 56 41 be 94 77 89 3d a4 e4 4a 3e
       -0.004036424 -0.18880647 0.06712261 0.19813782
000240 bd 00 16 be 54 40 67 bd 72 ea 82 be 63 be ba bd
       -0.14648719 -0.056457832 -0.25569493 -0.09118345
000250 1f 4f 32 be 32 1e db bc 39 6c 9d bd 1b 50 9c be
       -0.17412995 -0.026747797 -0.076866575 -0.30529866
000260 0e 94 03 3e 7a 72 d9 bd 86 1f 06 be a4 99 eb be
       0.12849447 -0.10617538 -0.13097963 -0.46015656
000270 63 68 e8 bd 65 e3 47 be 94 f3 0f 3d 36 7e 7c 3e
       -0.11348035 -0.19520338 0.035144404 0.2465752
000280 79 07 85 3e c1 c2 79 3e e0 97 30 3e a4 86 4d be
       0.25982264 0.24390699 0.17245436 -0.20070893
000290 89 6e 7a be 08 10 87 bd 81 97 52 3d ab ca fc 3d
       -0.24456228 -0.065948546 0.051414017 0.12343343
0002a0 4e 6d ae 3e 9f cd 33 be 95 d5 5a bf bb 84 0d be
       0.34067768 -0.17558907 -0.8548215 -0.13820164
0002b0 4f 6f c9 3e 90 a3 3b bf a3 02 79 be 06 1b 2d bf
       0.39342734 -0.7329645 -0.24317412 -0.6761936
0002c0 b2 1f 05 3f e1 61 bf bd 59 ba 29 be ed f8 08 3e
       0.5200149 -0.09344841 -0.16574992 0.13376208
0002d0 fc 25 82 be a8 1e ed 3e 16 d4 ce 3d 4d c1 1d 3b
       -0.25419605 0.4631245 0.10099046 0.0024071515
0002e0 92 bc aa 3e fd 58 b7 be 2a 31 40 be 32 76 ed bc
       0.33346993 -0.3581008 -0.18768755 -0.028987024
0002f0 d7 d2 f7 3d b0 80 94 3e 6d 79 92 3e 2c 08 d0 bd
       0.121007614 0.2900443 0.28608266 -0.10157809
000300 94 88 90 3e ec 3f b4 bd 1b d8 61 bd af 45 91 3e
       0.282292 -0.08801255 -0.055137735 0.28373477
000310 55 a7 df 3e 13 1b 47 3e b8 ba 7a be 7c a5 f4 3d
       0.43682352 0.19443922 -0.2448529 0.11945626
000320 a3 f0 04 bf c1 7f 24 3e 98 43 ab be 72 74 b6 be
       -0.5192968 0.16064359 -0.33450007 -0.35635716
000330 9d 40 3a 3e f4 dc e5 3c 29 b1 0b 3e 3d 3f cf 3e
       0.1818871 0.02805946 0.136418 0.40477934
000340 37 e0 52 be 11 11 dc 3e 8b e0 43 3e 0e ba a0 3d
       -0.20593344 0.4298177 0.19128625 0.07847987
000350 1f 90 e7 bd 4f cf e5 be 45 25 ac be 94 b0 a9 be
       -0.11306786 -0.44884726 -0.33622184 -0.3314253
000360 2e 67 31 be cf 52 3c 3e 3d 47 42 be 69 c9 a1 3d
       -0.17324516 0.18390964 -0.18972488 0.07899744
000370 14 75 05 bf b4 eb 9b 3d 63 23 18 3f d3 fc eb bd
       -0.5213177 0.07613316 0.59428996 -0.11522832
000380 d5 1b dd 3c 4a 3b 78 3d 22 ba 8f 3c d8 85 81 3e
       0.02699081 0.060603417 0.01754481 0.25297427
000390 60 43 7d 3e df de a7 3d 4b 35 a6 3e b6 d1 76 be
       0.24732733 0.08196806 0.32462534 -0.24103436
0003a0 65 8c ad 3c dc 25 2f 3e 9a 39 d4 3e 62 40 2f be
       0.02118511 0.17104286 0.41450197 -0.17114404
0003b0 4f 86 3f bd 62 2f 09 bf dc dd 99 be ad 24 bb bd
       -0.046758946 -0.53587925 -0.30052078 -0.09137855
0003c0 3d c6 7c 3e 80 9e 3b bf 8c 7b c7 be 47 c2 fd 3d
       0.24684997 -0.73288727 -0.38961446 0.12390571
0003d0 ea a9 79 be 7f cc b0 3e 67 b4 80 3e 75 96 e5 3e
       -0.24381223 0.34531018 0.25137636 0.44841352
0003e0 02 be 1b bf df d1 ae 3e ef 91 ff 3d 1c 5b 04 be
       -0.60836804 0.34144494 0.124790065 -0.1292538
0003f0 a9 24 27 bf 9c 29 0a 3e 28 40 e9 3d a0 88 6e be
       -0.65290314 0.13492435 0.1138919 -0.23294306

linear1.bias f4 [256]
000000 9e 46 a0 be fb 73 99 3d 8c c8 72 ba 44 d1 5e be
       -0.31303877 0.07492825 -0.0009261451 -0.21759516
000010 9e 86 56 be a6 6e a1 bd fe 74 5a be 69 f0 65 3e
       -0.2094979 -0.07882433 -0.21333691 0.2245499
000020 94 36 80 bd 4e ab f9 bd eb 7b 91 3e 3a 9d 84 3e
       -0.0626041 -0.12190877 0.28414854 0.25901204
000030 0b 36 a6 be ee 77 9c be 63 eb c7 bd 47 34 6c 3e
       -0.32463107 -0.3056025 -0.09761693 0.23066817
000040 24 3c e6 bd 7a 0c 81 be 80 d5 6d be f4 e4 fa be
       -0.1124194 -0.2520483 -0.23225975 -0.49002802
000050 86 cf 22 be 5f af 8f be 9f 53 77 3e 40 91 18 be
       -0.15899476 -0.28063485 0.24152993 -0.14899158
000060 bc 1c d9 bc d9 c1 cd bb d4 57 36 3d b5 bd a7 be
       -0.02650296 -0.006279212 0.044517353 -0.32761922
000070 d7 ee 0c be 67 3c 64 bd 6b 4b 8c 3d c7 da 45 3e
       -0.13762985 -0.055721667 0.06850322 0.19321738
000080 42 1e 77 be 25 54 0d be 4b ab 34 be 91 3c 37 be
       -0.24132636 -0.1380163 -0.17643468 -0.17894198
000090 d2 0f 56 be b7 a0 76 3e 8b ee 49 be 72 5a 97 be
       -0.20904472 0.24084745 -0.19719903 -0.29561192
0000a0 49 7c 15 bd 27 d8 bf be 0c 7d 83 bd 79 df 96 be
       -0.03649548 -0.374696 -0.06420335 -0.2946737
0000b0 b2 76 9d bd fa 39 cc 3d c9 6a 03 be 77 da aa be
       -0.07688655 0.09971996 -0.12833704 -0.333698
0000c0 59 46 f1 3d 63 fe 18 be b7 b5 8c be 50 a0 96 3d
       0.11780996 -0.14940791 -0.27482387 0.07354796
0000d0 29 77 d4 be 2e 67 41 be da 59 7d 3d 33 66 50 be
       -0.41497162 -0.18887016 0.061853267 -0.20351486
0000e0 20 c6 a6 be 4c 86 84 be 59 02 73 be 99 47 a6 bd
       -0.32573032 -0.2588371 -0.23731364 -0.08119125
0000f0 94 66 26 be 27 40 a8 bd 8d 74 ba be a3 7c 72 be
       -0.16250068 -0.08215361 -0.36417046 -0.23680358
000100 da f7 82 3e 51 c0 9f bd 39 b8 35 be a3 02 02 be
       0.2557972 -0.07800353 -0.17746057 -0.12696318
000110 27 c2 61 be 99 d4 97 be 9d 6d 47 be bb ff 56 be
       -0.2204672 -0.29654387 -0.19475408 -0.20995991
000120 ca 5b db bd 79 49 27 be 42 a9 ac 3e 86 59 2c 3d
       -0.10710867 -0.16336621 0.33722883 0.042077564
000130 71 d1 44 3d bb c0 a9 be e0 23 25 3f 91 cb 1b be
       0.0480513 -0.33154854 0.64507866 -0.15214373
000140 08 4d ba 3e a0 f8 36 be 22 44 1d 3f b2 33 b1 bd
       0.36386895 -0.1786828 0.6143209 -0.08652438
000150 c9 e6 89 be b2 fd ce 3d e6 af 6c be a6 48 be 3e
       -0.26933888 0.10106982 -0.23113975 0.371648
000160 0c 63 b8 be 19 34 87 be b7 dd 08 be ab bb 49 be
       -0.36013067 -0.26406935 -0.13365828 -0.19700496
000170 7b 6b 1e be c7 8e 9f be 18 51 d5 bd d6 9a 83 3d
       -0.15470688 -0.31163618 -0.10415858 0.06426017
000180 08 64 a4 bd 82 8c 38 be 8d e3 1d be 6a d6 e6 3e
       -0.08026892 -0.1802235 -0.15418835 0.4508546
000190 b2 8e 3a 3d a8 0c 2f 3d d1 8d 1c be da 8f ab 3e
       0.04554624 0.04273668 -0.15288474 0.33508188
0001a0 81 f0 4f be 5d a7 67 be 8c 08 20 3f cb f9 ba 3d
       -0.20306589 -0.22622438 0.6251304 0.091296755
0001b0 78 8d 39 be 8c 76 49 bd 8e 64 4d bc 84 c2 37 be
       -0.18120372 -0.04918532 -0.012536181 -0.17945296
0001c0 86 a8 97 be 6d 47 a4 bc 9c 0f a4 3c 53 81 95 be
       -0.2962076 -0.02005359 0.020026974 -0.2920023
0001d0 b9 5f 0b bb e6 93 a3 be 31 88 85 be 35 43 0e bd
       -0.0021266772 -0.31948775 -0.26080468 -0.034732062
0001e0 b7 a3 04 3e 62 8e 4c 3d a6 dc c1 be d4 cb 8d be
       0.12953077 0.049940474 -0.37863654 -0.2769457
0001f0 e1 1f 2b 3e 61 e4 b7 3d c1 6b f9 3e 95 04 b6 3d
       0.1671138 0.08979107 0.48715022 0.08887593
000200 80 55 7f 3e e5 25 96 bc 63 31 85 be 2e 7a b3 be
       0.2493496 -0.018328616 -0.26014242 -0.35054153
000210 a5 87 17 bc ca 77 8f be 22 f4 42 be 44 f4 d1 3e
       -0.009248649 -0.2802108 -0.19038442 0.41006672
000220 f8 0c 76 be 0e 24 73 be 7f 19 6f bd 8d 0b e0 be
       -0.24028385 -0.23744223 -0.058373924 -0.43758813
000230 95 da 3f 3d 76 7d 0e 3f 7f 2b 25 bc c2 62 58 be
       0.046839315 0.5566019 -0.010081171 -0.21131423
000240 1d 87 1c 3e 1d 2e a6 be 43 d8 03 be b6 c9 ae be
       0.15285917 -0.32457057 -0.12875466 -0.34138268
000250 b9 3d 01 be ab 15 85 be 28 25 9a 3c 6b c7 70 bd
       -0.12621202 -0.25993094 0.018816546 -0.05878393
000260 cb 04 bd be 80 2c e1 bd e5 34 59 be a4 25 e1 bd
       -0.3691772 -0.10994816 -0.21211584 -0.109935075
000270 48 a1 c8 3e 95 ac 7d be 85 6b e0 3d a1 58 79 3e
       0.39185548 -0.24772866 0.10958008 0.24350215
000280 52 de ea bb 06 ec 03 be 1b a0 79 bd 1c fd c1 bd
       -0.007167616 -0.12883005 -0.060943704 -0.09472105
000290 91 bb b5 be 5e 05 9a 3d ee 99 29 3c 76 a7 d6 3e
       -0.35494664 0.07520555 0.010351641 0.41924638
0002a0 c4 b8 6f be 84 c6 a5 be cf ed 5b be b3 c9 69 3d
       -0.23410326 -0.32378018 -0.21477436 0.05707712
0002b0 c4 aa 3c be 18 43 ba bd ee 20 c4 bd a1 31 85 be
       -0.18424517 -0.09094828 -0.09576593 -0.26014426
0002c0 95 27 42 be a1 81 91 bd 8e c2 8f 3d 19 d4 4d be
       -0.18960412 -0.07104803 0.0701953 -0.2010044
0002d0 7b 05 46 be 19 dc e4 3d a9 a0 42 be cb 93 48 3c
       -0.19338028 0.11174793 -0.190066 0.012242268
0002e0 b3 a7 0d be b3 01 9b be e7 1c 7c 3d 6c 13 c1 be
       -0.13833503 -0.30274734 0.061551 -0.3771013
0002f0 6b f3 9e be af 6f e3 bd 12 b2 89 be de 2e 8a be
       -0.31045088 -0.11105286 -0.2689367 -0.26988882
000300 a6 ec 61 be 95 4b 91 3d f0 99 8b be a0 2f eb be
       -0.2206293 0.07094494 -0.27265882 -0.45934772
000310 c2 97 40 3d c2 d2 66 3e ee cc 54 be a3 98 b5 bc
       0.047019728 0.22541335 -0.207813 -0.02216751
000320 0e 5f 67 3f 6f 7c 80 be ca 4f 18 be 05 9f d1 3e
       0.90379417 -0.25094935 -0.14874187 0.40941635
000330 b4 3e 36 3d 84 e9 42 bd a8 9d 10 be b3 cf 95 be
       0.044493392 -0.04758598 -0.14122641 -0.29260024
000340 46 67 b7 bd 44 05 df be 33 05 5e be ab d7 29 be
       -0.08955245 -0.43558705 -0.21681671 -0.16586177
000350 7a b1 d4 3a 5f 88 ed 3e 53 6c 73 3e 4f 3e 0f be
       0.0016227209 0.46393105 0.23771791 -0.13988613
000360 40 b8 c0 be b0 3f 97 bd 8b e6 b3 bc 47 49 03 be
       -0.37640572 -0.07385194 -0.021960517 -0.12820922
000370 94 df 74 be 26 d4 b8 be 28 a4 d5 bd 3a 2f 8a be
       -0.23913413 -0.36099356 -0.10431701 -0.26989156
000380 e5 33 b7 be 11 f7 8c 3e f6 f1 80 3e b7 88 18 bd
       -0.3578178 0.27532247 0.25184602 -0.037239756
000390 04 84 ad 3d 5c 5c 64 3e 0f f1 25 3e 14 18 5d be
       0.084724456 0.22300857 0.16205238 -0.21591216
0003a0 b9 3b ac be 91 e1 46 be f6 b6 0d 3c 72 d3 25 be
       -0.33639315 -0.19421984 0.008649578 -0.16193941
0003b0 52 d3 1b bd 18 19 a0 be d1 65 4b be 70 1f 9d be
       -0.038043328 -0.31269145 -0.19863059 -0.30688047
0003c0 88 64 dc bd 72 2c 5e bd 08 f4 2a be 2a 09 87 3b
       -0.10761362 -0.054241605 -0.16694653 0.0041209655
0003d0 68 b6 95 be 3f 63 76 be 36 75 44 be 1e 12 84 bd
       -0.29240727 -0.24061297 -0.19185337 -0.06448768
0003e0 e8 56 74 be 73 bd b2 3c 03 16 10 3d 5e aa fc 39
       -0.23861277 0.021818852 0.035177242 0.0004819212
0003f0 0e 8c 41 3d 67 26 92 be 10 d0 8d be cd f8 9c be
       0.047252707 -0.28544924 -0.27697802 -0.3065857

linear2.weight f4 [3, 256]
000000 d6 9b 6f bc ee 7e 1b 3d bb b5 0e bf 4f 91 04 bc
       -0.0146245565 0.037962846 -0.5574605 -0.008091285
000010 91 48 5c be 59 2f 58 bd 92 e2 59 3b da 2d e1 3e
       -0.21512057 -0.05277953 0.0033246619 0.43980294
000020 0b fe 3a be f8 92 be ba 26 1d e5 3e 60 f1 e3 3e
       -0.18260972 -0.001453965 0.447488 0.44520092
000030 b2 71 0b bc 60 8f a7 3c d0 b4 be bd cb 3f 83 3e
       -0.008510994 0.020454109 -0.09311831 0.25634608
000040 5d a8 6b be e8 99 9a bd 25 3f 04 be db 06 75 3e
       -0.23013444 -0.075488865 -0.12914713 0.23928396
000050 0a 95 07 bd 3c 1c cd bc 32 0b d7 3e 73 1b 30 be
       -0.03310112 -0.025037877 0.4200073 -0.17197971
000060 4e b2 24 be c9 f2 ff 3b d9 75 94 be 8a 8c 1c 3e
       -0.16083643 0.0078109247 -0.2899616 0.15287986
000070 88 c1 32 be 37 39 1e be 44 bc 0f 3f c3 43 0d 3f
       -0.17456639 -0.15451513 0.56146646 0.5518152
000080 de 7d 79 3e c6 8b 34 bf a4 f4 74 bc 91 92 a4 be
       0.24364421 -0.7052578 -0.014950905 -0.3214307
000090 46 50 73 3c 49 37 09 3e dc 3a 9c bc 7c 4f 0e 3d
       0.014850682 0.13399996 -0.019071035 0.03474377
0000a0 ee f8 2e be fa 08 1a bd 22 78 3d bd da 16 8d be
       -0.17087147 -0.037606217 -0.046257146 -0.27556497
0000b0 73 ca 97 be 1a e6 6d 3e c8 34 1d bd b7 11 69 3c
       -0.29646644 0.23232308 -0.038380414 0.014225415
0000c0 c7 5f 20 bc a6 6f 83 bd 51 98 f7 be 63 89 bd 3d
       -0.00978846 -0.064177796 -0.48358396 0.0925472
0000d0 8f ac 23 bc 24 e8 84 bb 05 05 94 3e 6b ef 39 be
       -0.009989872 -0.0040559936 0.2891008 -0.18157737
0000e0 1a ce 8b bc 81 06 00 bf d8 0f 0e 3d cd 1f cd be
       -0.01706605 -0.50009924 0.03468308 -0.40063325
0000f0 08 78 43 3c 94 3d 26 be 03 9f 6d be 26 86 0f bd
       0.011930473 -0.16234428 -0.2320519 -0.035040043
000100 e5 50 87 bd 93 c4 38 3e d2 f2 06 bf b3 cd 7d 3e
       -0.06607226 0.18043737 -0.52714264 0.247855
000110 fc 1a 3d be b1 ce 47 be 74 eb 82 3c e6 56 b3 bd
       -0.18467325 -0.1951244 0.015981413 -0.08756809
000120 b0 6f 45 bd c9 d5 d5 bd 07 39 ff 3e ac b7 5b 3d
       -0.048202217 -0.10441167 0.49848196 0.05364196
000130 50 d6 25 bd e8 c1 21 be b9 19 9c 3e 48 ee a0 be
       -0.040487587 -0.15796626 0.30488375 -0.31431794
000140 9f 5d 7f 3e 81 0a c5 bd a1 b5 01 3f f3 51 81 be
       0.24938057 -0.09621144 0.5066777 -0.25257835
000150 1a fe 7e bb e2 b9 a8 3e 14 a1 87 be 02 10 5f 3e
       -0.003890878 0.32954317 -0.2649008 0.2178345
000160 24 4c 95 3d ef 4c 7b be 01 fb 6c be a9 c2 37 bd
       0.07289913 -0.24541067 -0.23142625 -0.044863377
000170 89 54 c6 bd 1e 2f f6 3c 73 87 76 bc 39 e3 f3 3e
       -0.096840926 0.030051764 -0.015046942 0.47634295
000180 0c 6e 22 bf c5 c7 6a 3d 56 1e 0a bf cb d7 2a 3e
       -0.6344917 0.05731942 -0.5395254 0.16683881
000190 8d cb 0e bf d3 46 eb 3d c8 bf f6 be 7b 0d 95 3e
       -0.55779344 0.11488118 -0.48193192 0.29111847
0001a0 00 34 c4 bd 9e 7f ff bd 69 26 8d 3e d5 de 8c bd
       -0.09580231 -0.12475513 0.27568367 -0.06878439
0001b0 7a 7d 91 be 51 d9 25 3d 2c e2 3c 3d 4b d7 61 be
       -0.28416044 0.040490452 0.04611413 -0.22054784
0001c0 42 9e 28 bd c0 30 1c 3a 5d b9 d5 be 1f 20 8c be
       -0.04116655 0.0005958192 -0.41742983 -0.27368256
0001d0 5f 3c 2e bf d0 1c 17 be 40 6d 60 3b d8 b1 dc 3e
       -0.6806087 -0.14757085 0.0034244806 0.43104434
0001e0 c6 e8 02 3f c1 23 54 3e 88 6a c0 be e8 79 01 bc
       0.51136434 0.20716764 -0.37581277 -0.0079026
0001f0 9f 4b f2 3e 3b b6 b3 3e f8 de 3a 3e e2 06 65 3e
       0.4732332 0.35099968 0.18249118 0.22365907
000200 e3 0f 82 bd 70 8e 13 bf 15 5d fe 3d 14 b6 d0 bd
       -0.063506864 -0.5763922 0.12420098 -0.10190979
000210 da 2b f2 3d da 14 4e 3d b5 e6 0b bd f4 63 04 3f
       0.1182477 0.050312854 -0.034155566 0.51715016
000220 ba e9 9d be df 8e 65 3c ff 50 bb be 6b 52 81 be
       -0.30842382 0.014011114 -0.36585233 -0.25258192
000230 62 0d d3 3d f2 6c 0a 3f bf 47 70 bc 35 bf 99 3c
       0.10305287 0.5407249 -0.014665543 0.018767932
000240 72 8d 05 3f 70 5b 1a bd 80 af 16 bf 89 60 83 bd
       0.52168953 -0.037684858 -0.5886154 -0.06414897
000250 dd 4c 54 bd c4 08 cc be 61 e0 1b 3f 79 54 ea 3c
       -0.051831115 -0.39850438 0.6088925 0.028604733
000260 bb 7a 95 3c 38 b4 30 bf e6 81 36 3c 88 5d c4 bc
       0.018246999 -0.6902499 0.011139369 -0.02397038
000270 58 88 f1 3e d3 09 20 bd a4 51 87 be 28 61 68 be
       0.47174335 -0.03907187 -0.26429474 -0.22693312
000280 e9 45 d6 3e 17 ac ca be 45 37 00 bf 9d 78 c5 be
       0.41850212 -0.3958442 -0.50084335 -0.38568583
000290 08 20 0b bd 5f 1d de 3e 48 80 49 3e 78 e9 9b 3e
       -0.033966094 0.43381783 0.19677842 0.3045156
0002a0 39 76 87 be 09 92 6f 3b ca de 15 be a8 de 14 3f
       -0.26457384 0.003655555 -0.14635769 0.58152246
0002b0 11 ac b3 bc 58 26 a6 3c 9f 2b 40 be f3 1f 85 be
       -0.021932634 0.020281956 -0.1876664 -0.26000938
0002c0 83 50 65 bd 5c 6f 50 bc 81 9c ea be c9 a9 0f bd
       -0.055984985 -0.012721863 -0.45822528 -0.03507403
0002d0 12 59 91 bd b0 67 4e 3e c2 02 0d bd 6d cb 08 be
       -0.07097067 0.20156741 -0.03442646 -0.13358851
0002e0 81 c4 a1 bd 2e bc 0c be 2c dd 82 3e ba da 59 be
       -0.07898808 -0.1374366 0.25559366 -0.21274844
0002f0 64 b9 6d bd 52 74 af 3d 74 d5 5a 3b 29 54 06 bf
       -0.05803813 0.08567108 0.0033391388 -0.5247217
000300 68 ab ef bc 10 d0 de be 93 8b 2a 3d cc d7 81 3a
       -0.029256538 -0.43518114 0.041637015 0.0009906231
000310 7b 7d 9a bd c8 8c fd 3e b8 1b c8 3c f2 c6 05 bf
       -0.07543465 0.4952147 0.02442728 -0.5225669
000320 62 93 f1 3e 05 0d 7c be 28 94 05 be 34 cd d5 3e
       0.47182757 -0.24614342 -0.13044798 0.4175812
000330 bc 76 6d 3c 4c 0f 85 be 81 66 96 bc 03 7c 89 3d
       0.0144936405 -0.25988233 -0.018359425 0.067131065
000340 7c 3e 93 be 4a 20 d8 bb 26 96 ae be 25 b0 77 be
       -0.2875861 -0.006595646 -0.3409893 -0.24188288
000350 99 78 3d be 35 24 b7 3e 65 a4 3f 3e 9a 34 27 3e
       -0.18503036 0.3576981 0.18715055 0.1632866
000360 1c c3 36 3c 17 d7 b4 3e 94 eb 51 be ae 7e fb 3c
       0.011154916 0.3532035 -0.20500022 0.030700054
000370 dc 42 6a be 11 7f 8e bd cf f9 fe bd ee 24 23 bc
       -0.22877067 -0.0695783 -0.12449991 -0.009957535
000380 4b 52 a0 3c be 4f 16 3f 37 ec 23 3f 48 b3 96 3c
       0.01957049 0.58715427 0.6403231 0.018396035
000390 e9 79 51 bf 65 30 01 3e 06 09 c1 3e 5a 5e 27 3d
       -0.81826645 0.12616117 0.37702197 0.040861465
0003a0 3c 57 33 bf 64 d4 88 bd f5 dc c8 3e 2c c2 38 be
       -0.70054984 -0.06681135 0.39231077 -0.1804282
0003b0 fe df 84 bd d5 e1 b0 be 9e 42 ba bd 3e ce 9a bb
       -0.064880356 -0.34547296 -0.090947375 -0.004724293
0003c0 ea d7 6b 3d e1 4d cd be 3a cd 1d bf 72 79 2b be
       0.05757896 -0.4009848 -0.61641276 -0.16745546
0003d0 b4 d1 50 be 05 2f 60 3e e0 95 11 3d ca b4 9d be
       -0.20392495 0.21892937 0.035543323 -0.30801994
0003e0 72 7c 08 bf b0 6e cd bc 19 d1 bd 3b 76 29 8a 3e
       -0.5331489 -0.025077194 0.0057927486 0.26984757
0003f0 bf 04 ee bc a9 93 2f bd 5e cb 97 be cc a4 e7 bc
       -0.029054997 -0.04286543 -0.29647344 -0.028276823

linear2.bias f4 [3]
000000 a6 6c 80 3e f9 0c 08 be c1 42 69 bd
       0.25082892 -0.13286199 -0.056948427
