model/model.pth (torch, 16799 bytes, 4 tensors)

linear1.weight f4 [256, 11]
000000 53 a6 56 bf 87 33 19 3e c5 bf af 3d bd 6e ae 3e
       -0.8384754 0.14961062 0.08581499 0.34068862
000010 fd 4c 13 bf 82 fb 73 3e ba eb 9d 3e ed 25 fd be
       -0.5753935 0.23826411 0.30843908 -0.49442998
000020 8e 97 57 bf 18 58 1e 3c cb 75 61 3d e1 9f 02 3f
       -0.8421563 0.009664558 0.055043977 0.51025206
000030 01 6d 65 3d ab 1f 88 3f 14 40 02 bf 31 67 23 3e
       0.056012157 1.0634664 -0.50879025 0.15957333
000040 25 3b bd 3e ec 24 d9 be 2a f8 e3 be 25 c0 ee 3d
       0.36959186 -0.42410982 -0.44525272 0.116577424
000050 fd ed f5 be e4 c6 04 3f 47 2d 1b be aa 15 3a 3e
       -0.48033133 0.51865983 -0.1515399 0.18172327
000060 43 e1 94 be 3f 2f 93 be de 98 8f be 82 d5 e5 bd
       -0.2907811 -0.28746983 -0.28046316 -0.11222364
000070 e2 2c 17 be f0 36 2b bd 08 b8 08 bd 9a c4 2a 3e
       -0.14763215 -0.04180044 -0.03337863 0.1667656
000080 85 4a 4c be 14 03 42 3f 33 56 bd bd 42 14 e0 3d
       -0.19950302 0.75785947 -0.09244957 0.10941364
000090 4c 9d 3a 3e a3 47 c3 bc 9d e3 fb be 9a e8 7f 3e
       0.18224066 -0.02383787 -0.49197093 0.24991074
0000a0 e4 56 84 be 63 33 22 bf d0 39 ad 3e 9e e2 66 be
       -0.25847542 -0.6335966 0.3383317 -0.22547385
0000b0 78 6f cb be 49 1a ad 3c c0 e9 9a be 2f 74 6d bd
       -0.3973348 0.021130698 -0.30256462 -0.05797213
0000c0 b3 11 07 3d fd 5d f2 3c 9d 7d 00 bf 38 cb 71 be
       0.032975864 0.029585833 -0.5019167 -0.23612678
0000d0 57 f5 8d be bb d5 84 be 29 f5 0a bf dd 09 60 3e
       -0.27726242 -0.25944313 -0.54280335 0.21878763
0000e0 cd b2 b7 3c f6 76 c9 bc b4 cf 3f be a9 1e 47 bd
       0.022424126 -0.024592858 -0.18731576 -0.048613224
0000f0 66 2a 2a be 2f 95 a2 be 57 52 20 be 29 c2 76 be
       -0.16617736 -0.31754443 -0.1565641 -0.24097504
000100 93 13 4f be bf f5 1f bd 92 da d5 be db 0a fc 3d
       -0.2022231 -0.03905272 -0.41768318 0.12306758
000110 dc 59 f9 bd 1e 6b a5 3e 9b 8f cd 3e a2 ab a0 3e
       -0.121753424 0.32308286 0.40148625 0.31380945
000120 9e 5c 77 3e dc 11 06 bf 03 b7 f0 be 77 e6 15 bf
       0.24156424 -0.52371 -0.47014627 -0.58554786
000130 b6 4a d5 be 62 b7 01 3f bd 2b 9f 3c fd 6b 56 3f
       -0.41658562 0.50670445 0.019430036 0.8375853
000140 08 2d b9 3d 24 f8 19 be 8e 11 46 be 5a da 21 3e
       0.09041792 -0.15036064 -0.19342634 0.15805951
000150 a7 de c8 3e 65 b5 17 3f d6 c5 31 3f e6 56 a2 3e
       0.3923237 0.5926116 0.694425 0.31706923
000160 30 c0 81 bf 58 9e a8 3d 26 d6 c8 3e 59 f8 44 bf
       -1.0136776 0.08233327 0.39225882 -0.7694145
000170 0b 25 8e bf 3d 8a 24 3e 73 63 2e bc 9c 1c 39 bf
       -1.1105055 0.16068359 -0.010643828 -0.7230928
000180 44 80 6c bf c5 a4 d7 3e 66 25 70 3e 3a d2 6d 3d
       -0.9238322 0.42117897 0.23451766 0.058061816
000190 6a 97 30 bc 1c 17 d7 be 53 ff ed bc 1f bf d5 bc
       -0.010778287 -0.4200982 -0.029052412 -0.02609211
0001a0 60 13 01 bc 9e 9f 6f bd d4 b9 12 3e dc d0 0d 3e
       -0.0078781545 -0.058501832 0.143287 0.13849205
0001b0 99 8c 31 3e 50 3d 15 3e 91 00 af bd a8 1b 03 bf
       0.1733879 0.1457417 -0.0854503 -0.51214075
0001c0 e3 98 16 be 31 fc 5e 3e 32 87 e3 be cd 49 20 3f
       -0.14706759 0.21775891 -0.44439083 0.6261261
0001d0 0f a7 fc be 31 fa bc be ba 01 2b 3f b4 7b e5 be
       -0.49346206 -0.3690963 0.6679951 -0.4482094
0001e0 2d 7b 62 be 54 0d a6 be 5a 18 a5 be b6 ae 9d 3e
       -0.221173 -0.32432044 -0.3224514 0.30797356
0001f0 ee 05 83 bc 35 bd b1 be 02 ef 96 bd 49 05 98 3d
       -0.015994038 -0.34714666 -0.07369806 0.07422883
000200 1c e8 0e be 68 12 6c be 8c 77 8b be 62 91 06 bf
       -0.1395573 -0.23053896 -0.27239645 -0.52565587
000210 a0 e3 47 bd ba 30 0c be 19 b5 92 be d5 f6 de 3c
       -0.048801064 -0.13690463 -0.28653792 0.027217308
000220 0e e1 38 be fc f5 d4 bd 42 7f 86 bd 5a f0 82 3d
       -0.18054602 -0.1039848 -0.06567241 0.063935
000230 35 f7 84 be 96 c6 80 be af 91 93 be 74 87 32 bc
       -0.25969854 -0.2515151 -0.28822085 -0.010896552
000240 ed ea 93 bd 41 1c 2b be db e0 48 3e 4d 88 0c be
       -0.07222543 -0.16709997 0.19617026 -0.1372387
000250 2b c5 1c be df 5a 3d be 40 ed a0 be 1f 89 bb 3d
       -0.15309589 -0.18491696 -0.31431007 0.09157013
000260 98 ec 87 be a5 99 bc be 59 82 0f be 89 e2 d7 3e
       -0.26547694 -0.3683597 -0.14014567 0.4216502
000270 64 ea 24 bf 3e ac 80 be b5 1a 3c 3f 0f 6b 93 3e
       -0.6442015 -0.2513141 0.7347825 0.28792617
000280 0a ce 0c bf 30 f5 06 bd a0 6b c4 be 7c cc d5 be
       -0.5500189 -0.032948673 -0.3836336 -0.41757572
000290 98 9d 88 bf 3d 88 16 3e d5 fa 7d bc f5 89 87 3b
       -1.0673094 0.14700408 -0.015501698 0.004136319
0002a0 6a d0 6d be 4a e4 82 be 23 7b 11 bf 59 4f 5f bd
       -0.23224035 -0.25564796 -0.56828517 -0.05451903
0002b0 f4 8d ea 3c e7 87 eb be f0 b7 8b bc d0 1a 1d bd
       0.028632142 -0.46002123 -0.017055482 -0.03835565
0002c0 41 9e cc be 16 7b b6 3c d0 8d 13 bd be 9c a9 be
       -0.39964488 0.022275489 -0.036023915 -0.33127397
0002d0 1a b8 0b be 2c 95 de bd ad 0a 27 be 23 86 ad 3d
       -0.13644448 -0.10868296 -0.16312666 0.0847285
0002e0 93 ac e2 3b bb 59 52 3d 53 56 2b 3e e7 9c 27 bf
       0.006917545 0.051355105 0.16732149 -0.6547379
0002f0 d7 6e 6e bd b7 29 30 3e a3 25 0f be e8 8d 8f be
       -0.058211174 0.17203413 -0.13979201 -0.28037953
000300 b2 79 0c be 8a 3d 73 be 71 20 18 be 23 7a 8c be
       -0.13718298 -0.23753944 -0.14856125 -0.27436933
000310 b1 81 3f be f3 79 22 be 9a 0f d6 be ec 0e f8 be
       -0.18701817 -0.15866832 -0.41808778 -0.48448884
000320 31 5a b5 3d a3 07 34 bd 78 70 99 bd 52 5d a0 bd
       0.08855093 -0.043952595 -0.07492155 -0.078302994
000330 10 38 22 be 06 42 ad 3c 86 dc 5b 3d d7 ab f4 bd
       -0.15841699 0.021149646 0.053677104 -0.11946838
000340 a8 9a 8c 3d c9 f8 2a 3e 67 ab ad be df 7a d8 3e
       0.06865436 0.16696467 -0.33919832 0.42281243
000350 a5 5b 2f 3e 57 6d 1c bf c8 05 31 bf 10 fe d4 3e
       0.17124803 -0.6110434 -0.69149446 0.41600084
000360 14 50 24 3e b1 89 ed be 6e b2 c3 3e 2f 7a 66 be
       0.16046172 -0.46394113 0.3822207 -0.22507547
000370 96 0c 4d 3d e5 52 bf 3c eb ad 8e be 31 4f 8f be
       0.05006083 0.023354957 -0.27867064 -0.27990106
000380 f6 3c 84 3e a5 2e 59 3f fd 45 8c be ca 60 9f bf
       0.2582776 0.848368 -0.27397147 -1.2451413
000390 4c 4f 1e 3d 07 6c 9a be 12 ee 4c 3f 0a 2b 17 bb
       0.038649842 -0.30160543 0.80050766 -0.0023066425
0003a0 9b 46 70 be 56 da 11 be 2c 70 ea 3e 5a b5 1d bf
       -0.23464434 -0.14243445 0.45788705 -0.61604846
0003b0 be 67 a8 bd 04 3b 18 bf 34 9f 2f be cc f5 d8 3e
       -0.08222912 -0.5946505 -0.17150575 0.42375028
0003c0 38 1f 9c 3e 2f 57 f5 be f3 6a cb 3d 58 d6 03 3e
       0.30492568 -0.47918078 0.09932508 0.12874734
0003d0 97 56 a8 3c f0 ec 46 bb b2 20 b4 be 35 31 be be
       0.020549102 -0.0030353628 -0.35181195 -0.37146917
0003e0 22 3b 1e be a9 29 54 3c 90 f2 b1 3d 72 fd 18 3e
       -0.15452245 0.012949386 0.08688843 0.14940432
0003f0 b2 8b a2 bc 33 43 47 3e a0 9b 57 3d 86 d8 8e bf
       -0.019842003 0.19459228 0.05263865 -1.1159828

linear1.bias f4 [256]
000000 24 b4 06 3f 7c 5d 8b be 12 76 84 be 13 ee 3e bb
       0.5261862 -0.2721976 -0.2587133 -0.0029133603
000010 23 57 c2 3d 62 73 1d be ca e9 ce 3e c4 e9 ed be
       0.09489276 -0.15376046 0.40412742 -0.46467412
000020 0f 6f ea 3e 7a 13 e4 be 0e 29 7d be d6 62 85 be
       0.45787856 -0.4454611 -0.24722692 -0.26051968
000030 c6 51 c3 bd f2 8c 9d be 3d 36 26 3f 51 45 2c be
       -0.095370814 -0.30771595 0.6492651 -0.16823317
000040 78 59 36 be 49 27 ca 3c 06 8f 32 be 33 89 ca bd
       -0.17807567 0.024676936 -0.17437372 -0.0988945
000050 55 88 f9 be 86 22 94 be 88 c0 04 bf 6c 28 93 be
       -0.48736826 -0.2893259 -0.5185628 -0.28741777
000060 5c 1b 99 bd 84 34 8e 3e 5c d8 28 bf 25 bc f0 bd
       -0.074759215 0.2777444 -0.6595514 -0.11754636
000070 8b 29 9b be f6 11 e9 be 01 ec fe be 63 53 fb bd
       -0.30305132 -0.45521516 -0.49789432 -0.12271764
000080 eb 18 95 bd 70 8f ba bd ec 5d 08 bf c5 e2 1d bf
       -0.07280143 -0.0910939 -0.53268313 -0.6167415
000090 73 95 28 3e bb 0b 20 3f 18 d1 e8 be 10 90 3b be
       0.1646326 0.625179 -0.45472026 -0.18316674
0000a0 0b 94 f6 be e9 70 f7 be fe 7a d2 be e0 08 03 bf
       -0.48159823 -0.4832833 -0.4110946 -0.5118542
0000b0 5b a9 26 bf 17 68 84 be df ad 94 3d 4a 31 50 be
       -0.65102166 -0.25860664 0.07259726 -0.20331302
0000c0 86 6f d6 be 1c a9 ae be 7c 3a f2 bc b3 db b7 be
       -0.4188196 -0.34113395 -0.029568903 -0.35909805
0000d0 ea fc 8a be 6d bb b4 be 0e e9 32 be 8b 2a 36 be
       -0.27146083 -0.35299245 -0.17471716 -0.17789666
0000e0 25 f1 80 be 27 5f 53 be f7 63 04 be d8 23 d2 be
       -0.2518398 -0.20641766 -0.12928759 -0.41042972
0000f0 f3 6d 8e 3d 32 fe 93 be 66 70 f2 bd 4d f6 a6 be
       0.06954565 -0.28904873 -0.118378446 -0.32609788
000100 97 fd 8e be e8 e5 df bd 42 c5 0c 3c a4 d9 ab be
       -0.2792785 -0.10932523 0.008591952 -0.33564484
000110 fc d9 77 3e 10 e3 14 bf 2e 25 33 be 4d 52 91 3d
       0.24204248 -0.5815897 -0.17494652 0.07095776
000120 50 16 25 be 96 7a 1b bf ed fa d2 3d 20 92 eb be
       -0.16121793 -0.60733926 0.103017665 -0.46009922
000130 2a 81 38 be 36 0a eb be 7e 00 83 3e 24 a9 13 be
       -0.18018022 -0.45906228 0.25586313 -0.14419991
000140 eb 16 da 3c 3d 57 9a be 4b 40 23 bf 4d bc 2d be
       0.026622256 -0.30144683 -0.6376998 -0.16966362
000150 04 ee ba 3d 5d dd 7e be 79 77 95 be 15 7f 50 3e
       0.09127429 -0.24889131 -0.29192713 0.20360978
000160 5a 87 ca be e9 72 75 3e 87 15 14 bb a6 70 1a bf
       -0.3955639 0.23969616 -0.002259584 -0.6032814
000170 62 41 3b be 5d a1 14 bb 2d 42 b9 be 30 f2 20 3d
       -0.1828666 -0.0022679188 -0.361833 0.039293468
000180 d1 88 b9 be db 7c db bd 7e b8 36 bf c2 42 9c be
       -0.36237195 -0.10717174 -0.7137526 -0.30519682
000190 99 3f c3 be 87 45 a0 be da a8 b3 bd e2 c8 05 bf
       -0.3813446 -0.31303045 -0.0877244 -0.5225965
0001a0 15 71 ca bd e6 71 f3 3d b2 61 5b be ee e6 2c bf
       -0.0988485 0.11886959 -0.21423987 -0.6753987
0001b0 d7 9e c3 be 61 c8 e3 be 9f 50 b0 be e8 58 d5 3b
       -0.38207123 -0.44488814 -0.3443651 0.0065108426
0001c0 d3 46 ea be b8 74 98 bd 0c b6 08 bf ae 6a c7 3c
       -0.4575716 -0.07444137 -0.5340278 0.024342861
0001d0 51 19 26 be e4 4a cf 3c 5f 0a e5 be 0d 58 4a be
       -0.16220595 0.025304265 -0.44734475 -0.19760151
0001e0 9e 21 af 3d 75 67 1b bf 36 b8 5c 3f 83 8f 53 be
       0.08551334 -0.6070474 0.86218584 -0.20660214
0001f0 91 be dc be 6a 50 75 bd 7c 47 82 3e 45 7a 24 3e
       -0.4311414 -0.059891142 0.25445163 0.16062267
000200 19 72 b5 be 51 78 d9 3e 9b d4 b4 3d be bb 2e be
       -0.35438612 0.42474607 0.08829614 -0.17063805
000210 47 66 d0 be d6 8d d1 be f0 47 26 bd 26 37 e4 be
       -0.4070303 -0.40928525 -0.04059595 -0.44573325
000220 8b 38 3a 3e d6 de 25 3f 0c 45 0c 3f da 14 b2 be
       0.18185632 0.64793146 0.5479286 -0.34781533
000230 3b a3 41 be 8a bf d4 3c 86 6c 40 3f 23 47 19 bf
       -0.18909924 0.02597024 0.75165594 -0.5987417
000240 bf 42 ef be fe fa 3c be b2 19 04 be ee e9 29 3e
       -0.4673061 -0.18455121 -0.12900427 0.16593143
000250 45 14 23 be 5a e0 d0 be 1b f2 d0 be 30 99 43 3e
       -0.15925701 -0.40796167 -0.40809712 0.19101405
000260 9a 60 8a be a6 43 ff be e3 b4 cc be 41 47 a6 be
       -0.27026826 -0.498563 -0.39981756 -0.32476237
000270 ae 9a 82 be d2 aa 79 3d 5a a1 db bc d4 f2 2a be
       -0.25508636 0.060953923 -0.026810337 -0.16694194
000280 b7 8e dc 3d b1 ba 86 3e c7 11 80 be 96 3d 03 bf
       0.10769408 0.2631431 -0.25013563 -0.5126585
000290 43 f6 89 be cc 3c a4 bd 68 24 60 be 5a 5b 8a be
       -0.26945695 -0.080194086 -0.21888888 -0.2702282
0002a0 91 7e e0 be 81 91 21 bf fc 93 45 bd a6 b3 3c bd
       -0.43846563 -0.63112646 -0.048236832 -0.046069764
0002b0 47 64 c4 be 8e a4 28 be 79 ae 6e bd 47 9b 62 3e
       -0.38357756 -0.16469023 -0.05827186 0.22129546
0002c0 67 9e 2d 3e 41 07 f1 be e5 4d 86 ba 3a 59 b0 3d
       0.16954957 -0.47075847 -0.0010246603 0.086107686
0002d0 c5 d3 f2 3d c8 0c a0 be 58 71 d9 be 89 73 26 be
       0.11856798 -0.3125975 -0.42469287 -0.1625501
0002e0 4f de 5f be 2b 8f d2 be 3c c8 9a bd 3b 4e 89 be
       -0.21862148 -0.41124853 -0.07557723 -0.26817498
0002f0 73 0d cc bd fd 58 23 bf 4c be 08 be 37 71 17 bf
       -0.09963503 -0.6380766 -0.13353842 -0.5915713
000300 f6 bf ba be b1 e5 57 be 52 78 2d bb 18 6a 07 3c
       -0.3647458 -0.21083714 -0.0026469422 0.008265041
000310 1a 57 cf be 8c fd 41 bf dc 39 03 bf 9d 87 e8 bd
       -0.4049614 -0.75777507 -0.5126016 -0.11353991
000320 ee bc 4e be ed 5e 0a bf d9 e0 99 be 75 df e9 be
       -0.20189258 -0.54051095 -0.30054358 -0.45678297
000330 3a 97 8c be 28 bd 19 3e 70 93 92 be 6f 46 03 3f
       -0.27459127 0.15013564 -0.2862811 0.5127935
000340 ad 3a 1d bd f8 58 2f 3d 79 2d b5 3d da b0 82 be
       -0.038386036 0.042809457 0.08846564 -0.25525552
000350 a5 96 07 3e ea ef 11 bf 60 a4 ea be b8 67 4d 3f
       0.1324106 -0.57006705 -0.45828533 0.8023639
000360 a1 0d c2 be 85 3b ba bd e7 f0 1f 3f 02 09 44 3f
       -0.37901023 -0.09093384 0.6247696 0.76576245
000370 bb 14 31 be 03 b9 80 be d7 b7 06 3d d3 e0 d7 be
       -0.17293064 -0.25141153 0.032890167 -0.42163715
000380 66 a2 bf be 3c 2c 34 be 78 12 54 3f 54 43 07 bf
       -0.37428588 -0.17594999 0.8284068 -0.5283711
000390 9e b5 69 be e8 c9 78 be 93 8a 4a 3d 56 2f 0f 3f
       -0.22823188 -0.24295771 0.04944856 0.55931604
0003a0 88 1b 33 3f 34 3d 7e be 05 83 f2 bd 87 d0 18 be
       0.69963884 -0.24828035 -0.11841396 -0.14923297
0003b0 93 e6 72 bc 03 2b 07 bf be 5c 2b bf 26 d8 b2 bd
       -0.014825481 -0.52800006 -0.6693839 -0.08732633
0003c0 15 7f e1 be 12 de 00 bf 83 be 53 be 9c 21 89 be
       -0.44042268 -0.5033885 -0.20678143 -0.26783454
0003d0 da 55 33 3e 22 18 07 bf a3 8e 2b bd 89 45 be 3e
       0.17513219 -0.527712 -0.041884076 0.37162426
0003e0 f2 91 b4 be b8 7b 0e bf 03 00 bf be 14 95 07 bd
       -0.35267597 -0.5565753 -0.37304696 -0.033101156
0003f0 84 7b c8 be 35 b7 1d 3f 47 16 86 be 80 c0 25 be
       -0.39156735 0.61607677 -0.2618887 -0.16186714

linear2.weight f4 [3, 256]
000000 2c 62 8d 3e 0d de e9 bd 84 bb e2 bc 2c e3 6b be
       0.27613962 -0.11419306 -0.027677305 -0.23035878
000010 c8 68 7c 3c 0b 26 f5 bc 56 13 bf 3d 66 07 2e be
       0.015405841 -0.029925367 0.0932986 -0.1699501
000020 94 ee 24 3f bd 01 5c bb 36 18 e3 bd 7a dc b4 bc
       0.6442654 -0.0033570372 -0.11088602 -0.022077788
000030 79 ce 2b 3d 2a 72 dd bd 32 d0 20 3f 62 8c da bb
       0.041944955 -0.10812791 0.6281768 -0.006669567
000040 77 a5 1a bc 66 ac c0 bc 3e a6 07 3d 32 29 22 bd
       -0.009438864 -0.023519706 0.033117525 -0.03959007
000050 6f 5a 1d bf e4 a0 34 bc f5 0a d5 bc 70 33 0f be
       -0.61466116 -0.011024687 -0.026006201 -0.13984466
000060 c5 e8 c8 be aa 86 35 3e 95 2c 57 b9 3c cd 24 b8
       -0.3924009 0.17727152 -0.00020520606 -3.9291786e-05
000070 03 21 64 be dc b7 b7 bd c1 6b a4 be 8e 71 c0 bd
       -0.22278218 -0.08970615 -0.3211346 -0.09396659
000080 9b 90 ae bb 9b 1d 93 3c d5 6d 37 bf be 05 74 bb
       -0.005327297 0.017958453 -0.71651965 -0.0037234868
000090 d0 8f 79 bf 0b de 84 3e 9f b2 0a 3f a8 4f cb 3c
       -0.97485065 0.25950655 0.54178804 0.024818256
0000a0 2d f7 2c bd 53 88 11 3d 00 2b 8e be 03 fd cd 3c
       -0.042227913 0.0355304 -0.2776718 0.02514506
0000b0 9b 6b f5 3e 0c 0a 11 bf 23 d9 2d 3e bf 3d e5 bc
       0.4793366 -0.56655955 0.16977362 -0.027983544
0000c0 e9 b2 ae bd 82 b5 1c be aa 91 1f 3b 9a 19 e8 ba
       -0.08530218 -0.15303615 0.0024348297 -0.0017707825
0000d0 87 65 b4 bc a6 d0 af bc 5a 77 c1 bc 8c 63 fe bc
       -0.022021068 -0.021461796 -0.023616482 -0.031053327
0000e0 38 1e a0 bc ab 81 53 3e b8 ac 22 bc da fb 43 bf
       -0.01954566 0.20654933 -0.009928875 -0.7655617
0000f0 05 ce 57 bb 03 63 04 3d f6 29 62 be ca f1 c9 be
       -0.0032929194 0.032320987 -0.2208632 -0.39442283
000100 b8 fe 49 bd 23 e2 ef be 02 cd 96 3e 5b 11 06 3f
       -0.049315184 -0.46852216 0.29453284 0.5237023
000110 cc 0a 78 3d 3d b2 58 bd 33 06 a6 be 2e 1b 84 3b
       0.06055717 -0.052904356 -0.32426605 0.0040315604
000120 d2 81 19 3d f8 27 5e bc 86 54 39 bd 4e f2 8e 3d
       0.037477322 -0.013559334 -0.045246623 0.0697981
000130 dd ec 8d bc 86 ca be bc cd 31 3f 3f 56 12 aa bc
       -0.01732486 -0.02328993 0.74685365 -0.020760696
000140 9a 24 f8 be 39 9e 90 bb a0 c2 4a 3c 05 ed bf bd
       -0.48465425 -0.004413393 0.012375504 -0.0937138
000150 3a 19 8e be b7 88 9b be 54 5f a5 bc cf 8c 04 3f
       -0.2775362 -0.30377743 -0.020187058 0.51777357
000160 91 26 87 3b 13 ca a8 bd 79 1c e9 bc fc 2d 18 3c
       0.0041244705 -0.082416676 -0.02845596 0.009288307
000170 5b 39 13 bf a3 fa e2 3d c7 34 7f bc 0c 03 01 be
       -0.5750939 0.110829614 -0.015576548 -0.12598819
000180 9d 11 be 3b 82 38 b6 bc 92 23 91 3b 57 c2 95 bc
       0.0058004395 -0.022243742 0.004429289 -0.018281145
000190 33 ed 10 be 41 72 39 bd 93 db dd 3c 68 bf c4 bb
       -0.14152984 -0.045274977 0.02708224 -0.0060042627
0001a0 0b bc 8c be 10 92 41 3e 41 1a 56 bf 0b ec 3c bc
       -0.27487215 0.18903375 -0.8363381 -0.011530886
0001b0 ce 74 36 b9 18 e1 89 3d 4f d5 cf 3a 36 c1 32 3f
       -0.00017400386 0.06732386 0.0015856418 0.69826066
0001c0 db 8e b5 be 74 37 e8 bc c5 90 8d bd 22 5d cf be
       -0.35460553 -0.028346755 -0.06912378 -0.40500742
0001d0 17 aa 0e 3e 0f 66 97 3c b0 06 0b bd 13 4f a8 be
       0.13932072 0.018481283 -0.033941925 -0.3287283
0001e0 72 bb 09 bd c2 db 97 3c 77 5c 2c 3f 26 28 67 bf
       -0.033626027 0.018537406 0.6732859 -0.90295637
0001f0 16 9c 53 be 99 bf 23 be 1e 3a c4 bd 7a 13 bf 3e
       -0.20665011 -0.15991057 -0.095813975 0.37319547
000200 36 f7 d1 3c 37 59 ca 3e a6 5e 4a 3b 71 63 9c 3d
       0.025630575 0.3952119 0.0030879169 0.076361544
000210 35 44 cb bc 0e 68 d1 3a 5c 18 90 ba 62 1b 2c bb
       -0.024812797 0.0015976445 -0.0010993588 -0.0026261439
000220 24 95 b0 3d 4e 5b eb 3e f7 06 6d 3e 81 6f 86 39
       0.08622196 0.45968097 0.23147188 0.0002564155
000230 6f 6c bb be f2 40 d3 3e d3 22 89 3e 7d 46 a6 be
       -0.36606166 0.41260487 0.2678438 -0.32475653
000240 41 9b 05 bd 60 18 84 3a 7b 3f 09 3c de e5 b9 3e
       -0.032618765 0.0010078065 0.008376951 0.36308187
000250 e9 2d 13 be 3e 5c ad bd ad 8b 77 3a e6 60 58 39
       -0.14372982 -0.084648594 0.00094431156 0.00020635463
000260 53 c2 24 be c9 92 c2 bd 3c 07 73 be b9 f4 ed bd
       -0.16089754 -0.09500653 -0.23733228 -0.11618943
000270 0f 0b cf 3c ad f6 c8 3d f1 06 49 3e 34 d7 5c be
       0.025273828 0.09812675 0.19631554 -0.21566468
000280 70 f3 05 3f 65 10 4b 3e a8 ea 74 bd 2f 43 c1 bb
       0.5232458 0.19830473 -0.0597941 -0.0058979015
000290 33 4f 30 3b a1 f2 1d bd 5e d8 af 3b 5f 7a 88 be
       0.0026902675 -0.038561467 0.005366369 -0.26655862
0002a0 fa 95 7f 3e ad 11 99 3c 3c ea cc 3e d7 c4 57 3c
       0.24959555 0.018685186 0.40022457 0.013169489
0002b0 ea b3 93 3d db 46 8a be e0 4f ca 3e 34 b6 88 3e
       0.0721205 -0.27007183 0.39514065 0.2670151
0002c0 f2 56 45 3f c6 5a 3d be e8 3c 8d bd 88 c0 9b 3e
       0.77085793 -0.18491659 -0.068963826 0.30420327
0002d0 0f d1 0e 3c 63 32 2d bd ad 03 8d be 21 0b 24 bf
       0.008716836 -0.04228438 -0.27541867 -0.6407948
0002e0 ae f4 ba 3c ca 12 5f bd ad ba e0 bc 6c 0d a9 3e
       0.02282175 -0.054461278 -0.027432764 0.33018053
0002f0 bb b9 3d be 54 fb 05 3e c2 81 39 be d7 f0 37 3f
       -0.18527882 0.13084155 -0.18115905 0.7185187
000300 6d a2 0b be 87 f3 c5 3e fe c4 a2 bc be ef f5 3e
       -0.1363618 0.3866236 -0.019869324 0.4803447
000310 6c 3a 04 be 60 20 52 3b 15 e9 93 bb b6 28 ce 3b
       -0.12912911 0.0032062754 -0.0045138695 0.006291474
000320 9a 4c 82 bd d3 ec a3 be 47 f1 02 bf 17 de ab 3c
       -0.06362267 -0.3201662 -0.5114941 0.020979924
000330 bc 6a c0 bd 4c d6 72 3c 11 e4 25 3d 02 8d 89 3e
       -0.09395358 0.0148216 0.040500704 0.26865393
000340 ff f0 fd bd 1b d0 80 bf 52 cc d7 3e 2b a6 57 bb
       -0.12399482 -1.0063509 0.42148072 -0.003290544
000350 4c a6 4d 3f 29 e4 9f bc 11 08 93 bd 93 29 08 3e
       0.80331874 -0.019517975 -0.07179273 0.1329711
000360 a3 10 cb bc 8e dc a0 bd 84 a7 d1 3e 1d 62 c9 3e
       -0.024788206 -0.078545675 0.40948117 0.39332667
000370 fc 11 29 be 45 16 89 3e ed ea 97 3d c9 1a e2 bb
       -0.16510767 0.26774803 0.074178554 -0.0069001657
000380 ae 0e 90 bd 90 b0 b6 be b6 70 9c 3e 02 ad bd bd
       -0.0703405 -0.35681581 0.30554742 -0.09261514
000390 cb 67 d4 bd f7 4f 85 be ab f4 ba bc f1 70 61 3e
       -0.103713594 -0.2603757 -0.022821745 0.2201574
0003a0 0e 4a 10 3f e5 5d 49 3d f9 c8 31 bf 3b 48 2c bd
       0.56363 0.04916181 -0.69447285 -0.04206107
0003b0 72 af 34 be 60 c4 5c 3e 04 c7 dc 3b 4c 66 5a be
       -0.17645052 0.21559286 0.0067375917 -0.21328086
0003c0 fc 50 fe bc 3c c7 5a 3d 15 30 49 bc 21 87 47 3c
       -0.031044476 0.05341266 -0.01227953 0.012178213
0003d0 b2 ab ec 3e 74 ce 0e ba 52 ce a5 3e 35 27 2c 3f
       0.46224743 -0.0005447634 0.32383972 0.67247325
0003e0 0c 3d 12 3f 63 ca 7e bc 24 fc ea 36 83 4e 2c bd
       0.571244 -0.015551182 7.0030965e-06 -0.042067062
0003f0 54 fc 6c 3b b5 38 51 3e d3 25 19 bf 37 7e d0 be
       0.0036161141 0.20431788 -0.5982334 -0.40721294

linear2.bias f4 [3]
000000 2a b9 ec 3e 43 f7 49 3d 93 2b 85 be
       0.4623502 0.049308073 -0.26009807
