model/model.pth (torch, 16787 bytes, 4 tensors)

linear1.weight f4 [256, 11]
0.064849265 0.023483569 -0.8441867 -0.43996656 0.40896812 0.13817866 -0.23809618 0.42061278
-0.18444645 -0.26774192 0.44475302 0.04895296 -0.46110395 0.26207522 0.31454045 -0.6162484
-0.66773707 0.17946154 -0.40306127 -0.6671705 -0.58768183 0.28312087 0.006874028 -0.24907891
0.031051826 -0.07021465 -0.23813732 -0.058476184 -0.05127901 -0.07033374 0.074027315 0.07912999
-0.007856198 0.2677717 0.13074704 -0.03134944 0.43008575 0.01806688 -0.26877683 -0.34991094
-0.29125065 0.12488453 0.35870007 0.46280694 -0.09992083 0.11726129 -0.4023247 -0.36618876
0.357208 0.34371337 -0.5802446 -0.16792153 -0.13630012 0.25844657 -0.5612657 -0.38805732
-0.06648329 0.36046755 -0.057559356 -0.040322367 -0.15140115 -0.04003325 0.06827425 0.008345527
0.11083867 0.14841223 0.055294145 -0.10164923 -0.050927978 -0.23274536 0.12791772 -0.47223145
0.6252708 0.45422947 -0.61409587 0.07526262 -0.35022956 -0.100168586 -0.19503081 -0.03291768
0.24011412 0.085813224 -0.36087897 -0.17409366 -0.1338678 -0.38810393 0.21575528 -0.2929031
0.10309625 0.00017334876 0.56801003 -0.12317583 -0.37057495 -0.43671235 0.36934012 0.3711981
-0.20852445 -0.61175627 -0.21955797 -0.5891553 -0.24748452 0.11922394 -0.11793819 -0.09388849
-0.06972068 -0.1343813 -0.20720273 -0.16987547 -0.1983366 -0.29457027 -0.16051108 -0.054292258
-0.55254316 -0.35721853 -0.20047928 0.23053418 0.19193423 -0.042797152 0.011712448 -0.47274426
-0.45900407 0.07967325 -0.0043265363 -0.6323279 -0.23856032 0.2787265 0.5388044 -0.23368342
-0.21083947 -0.2788969 -0.60545516 0.2168891 0.46678492 0.017885435 -0.00811811 0.36683145
0.5722884 -0.45692945 -0.09709891 -0.29402202 -0.48238862 0.5468603 0.23846067 0.52414787
0.022179775 0.04483243 -0.41027763 -0.21300198 -0.044041403 0.3600009 0.5921273 0.3640573
0.19382761 -0.2174192 -0.04735318 0.085295096 -0.30004975 -0.02439776 -0.020198226 0.030924993
-0.15780668 -0.06483766 -0.29316112 0.029873064 -0.2250624 -0.15277931 -0.043739613 0.27780163
-0.18810332 -0.07679825 -0.32082397 -0.19572614 0.22520375 -0.0012337683 -0.021817986 -0.15771142
-0.46955866 -0.06771361 0.09377869 -0.036724363 0.10898984 -0.36184046 0.4401588 0.22098972
-0.55913234 -0.5180506 -0.06897516 0.026643103 -0.049063534 0.08476198 -0.1529476 -0.2402826
-0.22245902 -0.25428134 -0.13334236 -0.16250384 0.14821276 0.13866892 0.28749418 0.09221435
-0.59199524 0.41547373 -0.06542877 -0.13874981 0.13978724 -0.105278656 0.2873521 0.44415936
0.006797497 0.034939848 -0.08746874 -0.63574266 0.28010207 -0.25724196 0.098794855 -0.32210675
-0.0670059 0.3218895 0.09268977 -0.2422519 0.13623399 -0.15655747 0.25147197 -0.19580418
0.5088436 -0.11453341 0.18390432 0.24680565 -0.8464207 -0.4466029 0.025606856 0.084412545
0.15051027 0.68176544 -0.028989328 -0.25526562 -0.44554204 0.16142076 0.32123864 -0.2696538
0.30580762 -0.15792148 -0.1370823 -0.074287355 -0.55111486 -0.5999077 0.5827387 -0.61336225
0.04232612 -0.9090908 0.2676156 -0.4536141 -1.140518 -0.018074892 0.12418099 0.47947755
00000000: b1cf 843d 9d60 c03c 9f1c 58bf 4c43 e1be
00000010: 4564 d13e b57e 0d3e 7ccf 73be 8f5a d73e
00000020: 88df 3cbe 7815 89be abb6 e33e e682 483d
00000030: d115 ecbe b92e 863e 720b a13e 75c2 1dbf
00000040: d1f0 2abf c4c4 373e 0c5e cebe b0cb 2abf
00000050: 5172 16bf 38f5 903e 873f e13b 8b0e 7fbe
00000060: 6660 fe3c b3cc 8fbd 45da 73be b984 6fbd
00000070: f009 52bd 230b 90bd a29b 973d e70e a23d
00000080: 48b7 00bc 5f19 893e 8de2 053e 4568 00bd
00000090: 3334 dc3e fe00 943c 1e9d 89be 8727 b3be
000000a0: ce1e 95be 76c3 ff3d 89a7 b73e 08f5 ec3e
000000b0: 4ba3 ccbd b026 f03d 81fd cdbe 187d bbbe
000000c0: f8e3 b63e 33fb af3e e98a 14bf 9ff3 2bbe
000000d0: 4292 0bbe 1c53 843e 1caf 0fbf 73af c6be
000000e0: 6428 88bd 348f b83e 5cc3 6bbd 1129 25bd
000000f0: e708 1bbe e8f9 23bd 5fd3 8b3d adbb 083c
00000100: 62ff e23d 60f9 173e 1d7c 623d 792d d0bd
00000110: db99 50bd cd54 6ebe ddfc 023e 52c8 f1be
00000120: bf11 203f c490 e83e 6335 1dbf 4a23 9a3d
00000130: 4a51 b3be 3025 cdbd 28b6 47be b0d4 06bd
00000140: 7ae0 753e d8be af3d 21c5 b8be 9c45 32be
00000150: a414 09be 8fb5 c6be f4ee 5c3e 65f7 95be
00000160: 2024 d33d f4c4 3539 1b69 113f 9c43 fcbd
00000170: 00bc bdbe c398 dfbe 261a bd3e ad0d be3e
00000180: 6f87 55be 0f9c 1cbf ced3 60be e2d2 16bf
00000190: 956c 7dbe ae2b f43d 9489 f1bd 9c48 c0bd
000001a0: b7c9 8ebd 409b 09be f42c 54be d6f3 2dbe
000001b0: c018 4bbe ead1 96be 045d 24be 8f61 5ebd
000001c0: 7873 0dbf 59e5 b6be 714a 4dbe 2711 6c3e
000001d0: 688a 443e 114c 2fbd 91e5 3f3c 890b f2be
000001e0: 9502 ebbe bb2b a33d 9ec5 8dbb 3ee0 21bf
000001f0: 2849 74be 3db5 8e3e 16ef 093f b54a 6fbe
00000200: 4de6 57be 93cb 8ebe 1cff 1abf 2d18 5e3e
00000210: 6ffe ee3e 7a84 923c d201 05bc 55d1 bb3e
00000220: 7e81 123f a8f2 e9be cbdb c6bd 0e8a 96be
00000230: a4fb f6be 09ff 0b3f 092f 743e 8e2e 063f
00000240: 5cb2 b53c 36a2 373d e90f d2be 311d 5abe
00000250: c264 34bd 0a52 b83e a895 173f b865 ba3e
00000260: bf7a 463e 24a3 5ebe 68f5 41bd 32af ae3d
00000270: 1fa0 99be d0dd c7bc c076 a5bc 6956 fd3c
00000280: 1398 21be 9bc9 84bd 3719 96be 5bb8 f43c
00000290: c276 66be 2e72 1cbe 4f28 33bd 043c 8e3e
000002a0: 289e 40be 6748 9dbd 0a43 a4be 6f6c 48be
000002b0: d09b 663e 65b6 a1ba a2bb b2bc 1a7f 21be
000002c0: fe69 f0be 6fad 8abd 0b0f c03d 496c 16bd
000002d0: 1136 df3d 2743 b9be 7f5c e13e 214b 623e
000002e0: 4c23 0fbf f79e 04bf d942 8dbd a342 da3c
000002f0: d8f6 48bd b097 ad3d 4c9e 1cbe a40c 76be
00000300: 4ccc 63be 2a31 82be e68a 08be 6867 26be
00000310: 16c5 173e 3aff 0d3e 7032 933e e1da bc3d
00000320: 008d 17bf f9b8 d43e 85ff 85bd 6e14 0ebe
00000330: 6324 0f3e 569c d7bd d01f 933e db68 e33e
00000340: 8abd de3b 161d 0f3d d022 b3bd 08c0 22bf
00000350: 8a69 8f3e 38b5 83be f554 ca3d 2deb a4be
00000360: 643a 89bd b3ce a43e 22d4 bd3d e210 78be
00000370: ec80 0b3e 9a50 20be efc0 803e e480 48be
00000380: 9343 023f 7e90 eabd 6a51 3c3e 9fba 7c3e
00000390: 07af 58bf 23a9 e4be 78c5 d13c 7ce0 ac3d
000003a0: 5d1f 1a3e 2e88 2e3f 077b edbc 2db2 82be
000003b0: 161e e4be 7c4b 253e 6479 a43e 1010 8abe
000003c0: d192 9c3e 2bb6 21be 4d5f 0cbe f823 98bd
000003d0: dd15 0dbf 8d93 19bf 5d2e 153f 4f05 1dbf
000003e0: 275e 2d3d 2dba 68bf e904 893e 1b40 e8be
000003f0: 7efc 91bf cc11 94bc 9a52 fe3d 157e f53e

linear1.bias f4 [256]
-0.22606152 0.1838164 -0.20006119 -0.21049415 0.08250234 -0.35182577 -0.2359165 -0.13399161
-0.27661872 0.059307158 0.14397879 -0.004295526 -0.09713974 -0.19319943 -0.14842138 -0.4403547
-0.03966331 -0.14127173 -0.25792396 -0.1966211 -0.10836954 0.013003276 0.31042787 -0.060784556
-0.45507523 -0.19555892 0.13840282 -0.21278676 -0.16774774 -0.24075167 0.2131184 -0.24939881
0.055663206 -0.041909523 0.09848949 -0.14425112 0.18608423 -0.4535373 -0.0076848343 -0.4348865
-0.379235 0.031159969 -0.0838438 -0.28444263 -0.13767645 -0.04950172 -0.17508532 -0.1355199
-0.21043985 -0.42232952 0.3731902 0.1641758 -0.17668545 -0.48403195 0.15792675 -0.33539048
-0.036591973 -0.06929926 0.01547925 -0.32298928 -0.00011409946 -0.12171403 0.14985654 -0.012040143
-0.18645616 -0.029369656 -0.23038968 -0.12232755 -0.33248517 -0.32236525 0.05484273 0.00030050272
-0.22088401 -0.011527884 -0.24314094 -0.059685476 -0.20366308 -0.26283443 -0.01500407 -0.13778879
0.051605675 -0.0814166 0.16163069 -0.24882147 -0.26042244 0.3935348 -0.20617753 -0.26512554
-0.10820258 -0.38746843 0.07748781 0.12085226 0.07918914 -0.39192307 0.16324322 -0.049101193
0.4223814 0.094652705 0.37267926 0.0928163 -0.17284693 0.11336681 -0.3324109 -0.06746944
-0.18080775 -0.18665388 -0.10552419 -0.27172992 -0.13641575 0.23473063 0.071590915 -0.41025296
-0.3933619 -0.029440986 0.25159732 -0.20605028 -0.12963969 -0.31376854 0.025262374 0.057998322
0.6625953 -0.19734335 -0.23452778 -0.2760152 -0.1774963 -0.14459862 -0.08893531 -0.33149543
0.39914176 -0.39867255 0.1281055 -0.16431494 0.27096218 -0.2100581 0.0044100923 0.17565785
-0.22699171 0.05541805 0.32387432 -0.12935661 -0.27666026 -0.14422254 -0.027990667 0.01721073
-0.15564561 0.022878066 -0.42989245 -0.15651762 0.06357222 0.6188535 -0.21348466 -0.26102734
-0.020490147 0.6132941 0.10789439 -0.1527077 -0.17851125 -0.3080418 0.03188001 -0.36130503
-0.3406931 -0.20326918 -0.2270964 -0.24556953 0.095541894 -0.14882956 -0.30103707 -0.22219363
-0.21150848 -0.108444735 0.22585773 -0.022915099 -0.39047155 -0.28642243 -0.19921471 -0.18806124
-0.110301286 0.3181464 -0.27535015 -0.28244382 -0.18981536 -0.30032584 -0.1435356 -0.1367486
0.29603016 -0.28818583 -0.32424057 -0.13860177 0.07188772 -0.26180732 -0.20551746 0.5566976
-0.23103961 -0.21472667 -0.08162943 -0.3008322 -0.17017698 -0.12167007 0.32043782 0.15923864
-0.21943669 -0.10875922 -0.3998497 -0.061495535 -0.43862817 -0.21847512 -0.06090339 -0.4791451
-0.15133457 -0.27210966 0.015748624 -0.14298902 -0.30598933 -0.15188625 0.4816064 0.34525222
-0.17898835 0.18081914 0.20956539 0.014852289 -0.26771194 0.16938643 -0.3248913 -0.010130463
-0.031447284 -0.26475245 0.40705425 -0.20570287 -0.2126161 0.350632 -0.37391552 -0.18002526
-0.26141316 -0.08745992 -0.18557988 -0.41917115 0.5190819 -0.062259607 -0.39632308 -0.08991304
0.16349475 -0.28235716 -0.31027132 -0.22336198 -0.061942954 -0.25656027 -0.333358 -0.04726719
-0.071265705 0.0317877 0.07484686 0.021894645 -0.16121139 0.31301007 -0.084582515 -0.22517739
00000000: ac7c 67be 5e3a 3c3e d7dc 4cbe c78b 57be
00000010: fdf6 a83d 8222 b4be 1894 71be 1935 09be
00000020: f8a0 8dbe 10ec 723d 2d6f 133e 7cc1 8cbb
00000030: 33f1 c6bd 12d6 45be c6fb 17be 2c76 e1be
00000040: ff75 22bd 89a9 10be 9c0e 84be 0b57 49be
00000050: d9f0 ddbd b10b 553c 67f0 9e3e 3af9 78bd
00000060: 9fff e8be 9940 48be 78b9 0d3e c6e4 59be
00000070: 10c6 2bbe 9b87 76be b63b 5a3e 6762 7fbe
00000080: 1aff 633d 52a9 2bbd dcb4 c93d 91b6 13be
00000090: dd8c 3e3e 0a36 e8be 10d1 fbbb 71a9 debe
000000a0: 172b c2be 3143 ff3c 4cb6 abbd 77a2 91be
000000b0: 0efb 0cbe 51c2 4abd 9149 33be bbc5 0abe
000000c0: 8b7d 57be 933b d8be c912 bf3e b31d 283e
000000d0: 08ed 34be 09d3 f7be 8db7 213e 4db8 abbe
000000e0: 77e1 15bd c5ec 8dbd ae9c 7d3c da5e a5be
000000f0: ae48 efb8 3545 f9bd fe73 193e 0544 45bc
00000100: 5dee 3ebe a298 f0bc 46eb 6bbe de86 fabd
00000110: 7f3b aabe 0f0d a5be c5a2 603d cb8c 9d39
00000120: 6b2f 62be 73df 3cbc f0f9 78be c278 74bd
00000130: 0e8d 50be 3c92 86be a1d3 75bc 8118 0dbe
00000140: 7960 533d bfbd a6bd 8482 253e 0ecb 7ebe
00000150: 1756 85be 657d c93e 3420 53be 89be 87be
00000160: 5099 ddbd 4362 c6be eeb1 9e3d 6481 f73d
00000170: ea2d a23d 24aa c8be 3b29 273e 551e 49bd
00000180: 6042 d83e 47d9 c13d d1cf be3e 7916 be3d
00000190: c9fe 30be dc2c e83d c331 aabe 6b2d 8abd
000001a0: ab25 39be 3222 3fbe 111d d8bd 2f20 8bbe
000001b0: 92b0 0bbe 3a5d 703e 429e 923d ad0c d2be
000001c0: bb66 c9be 392e f1bc 5dd1 803e d8fe 52be
000001d0: 44c0 04be 45a6 a0be 0af3 ce3c a68f 6d3d
000001e0: d89f 293f 6014 4abe 0d28 70be dd51 8dbe
000001f0: 97c1 35be a911 14be b723 b6bd c5b9 a9be
00000200: 4f5c cc3e cf1e ccbe 172e 033e 2d42 28be
00000210: 8ebb 8a3e 7819 57be 8982 903b a7df 333e
00000220: 8470 68be 0afe 623d dbd2 a53e 0f76 04be
00000230: 6aa6 8dbe 13af 13be af4c e5bc 84fd 8c3c
00000240: 9061 1fbe c86a bb3c dd1a dcbe 2846 20be
00000250: 2732 823d 2f6d 1e3f b99b 5abe 60a5 85be
00000260: f4da a7bc d800 1d3f bcf7 dc3d 685f 1cbe
00000270: a7cb 36be a8b7 9dbe 9d94 023d f9fc b8be
00000280: 536f aebe cc25 50be f58b 68be 9476 7bbe
00000290: 78ab c33d c766 18be 8821 9abe ba86 63be
000002a0: ae95 58be 4618 debd 4047 673e 72b8 bbbc
000002b0: e3eb c7be f6a5 92be f1fe 4bbe 2093 40be
000002c0: a4e5 e1bd 16e4 a23e b2fa 8cbe 7a9c 90be
000002d0: f55e 42be 4fc4 99be fffa 12be d307 0cbe
000002e0: 4491 973e 188d 93be dc02 a6be 9fed 0dbe
000002f0: de39 933d 9c0b 86be 2b73 52be bc83 0e3f
00000300: a695 6cbe 4fe1 5bbe 552d a7bd ae06 9abe
00000310: e042 2ebe 282e f9bd 6d10 a43e 740f 233e
00000320: 03b4 60be 27bd debd 1ab9 ccbe bee2 7bbd
00000330: df93 e0be f1b7 5fbe d575 79bd 8252 f5be
00000340: 73f7 1abe f551 8bbe 4203 813c b76b 12be
00000350: a2aa 9cbe 1288 1bbe 1d95 f63e e6c4 b03e
00000360: b948 37be a728 393e 4f98 563e 0457 733c
00000370: 8a11 89be a373 2d3e 2758 a6be 3efa 25bc
00000380: dece 00bd a28d 87be 6a69 d03e c6a3 52be
00000390: 09b8 59be 0a86 b33e db71 bfbe 8b58 38be
000003a0: f2d7 85be 301e b3bd a708 3ebe 9a9d d6be
000003b0: 8de2 043f ee03 7fbd dcea cabe 5424 b8bd
000003c0: 2b6b 273e 1e91 90be e2db 9ebe 01b9 64be
000003d0: e5b7 7dbd de5b 83be e6ad aabe 3e9b 41bd
000003e0: c1f3 91bd d233 023d 4f49 993d 665c b33c
000003f0: 9914 25be db42 a03e 9939 adbd e794 66be

linear2.weight f4 [3, 256]
-0.3370252 0.16244316 -0.015397395 -0.2300548 0.21558927 0.011602652 -0.20202626 -0.05354803
-0.116625294 -0.025444768 -0.2389404 -0.40136606 -0.51358825 -0.4240774 0.0028801614 0.008122723
0.037090093 -0.020774188 -0.21497978 -0.03123738 -0.018255526 -0.07591939 0.51997983 -0.021379631
-0.00019253258 -0.1451524 0.28901875 -0.16712031 0.025044631 -0.17378332 0.30536175 -0.26670006
0.18505085 0.5017204 0.34487218 -0.36068335 -0.3583987 0.0012346901 -0.022322964 0.046208832
-0.20941441 -0.081254564 -0.13073583 0.011404564 -0.48604277 -0.43057525 -0.20426263 -0.056762196
-0.19395708 -0.02085348 0.13080959 -0.070888534 -0.017197601 0.21366288 0.37712994 -0.0026437338
0.122958645 0.30489513 0.30819005 0.008969352 -0.19968882 -0.16649406 0.1651417 0.29130504
-0.014351003 -0.119848184 -0.51828843 -0.09112687 -9.921686e-05 -0.26226002 -0.023362985 -0.4345927
-0.25542963 0.20001456 -0.00052573235 0.34138948 -0.5436968 -0.5008514 -0.2082505 -0.23458548
0.43994024 0.6300305 0.3118007 -0.070433885 -0.18901755 0.49097148 -0.09133702 -0.59503394
0.24445292 -0.01605793 -0.74716765 0.43757355 0.23646143 -0.038719743 0.034845002 -0.014655839
0.06780019 -0.038272258 0.41268378 0.18379901 -0.017287986 0.72722787 -0.24433126 -0.09792787
0.19075175 -0.020512223 -0.12655339 0.00663047 -0.034031704 0.16823214 0.5683139 -0.03786652
0.06085739 -0.48855343 0.14352226 -0.107919656 -0.014402304 -0.008433774 -0.7595597 0.15218227
0.378356 -0.27997133 -0.009330332 0.001453392 0.023171667 -0.5617191 -0.0732966 0.007414834
0.64570665 0.01753191 0.24122946 -0.055817246 0.13433167 -0.022143144 0.18103562 0.18330826
-0.0045264284 0.06652008 0.80959916 -0.11289341 0.01403753 -0.103730634 -0.29969507 0.5544551
-0.22600675 -0.4272079 -0.031160075 -0.007473478 -0.5260689 0.33688265 0.22189999 -0.18019639
-0.61946166 0.42980185 0.02033381 -0.2386625 -0.1290848 -0.08490746 0.6550008 -0.08552149
-0.4249491 -0.046179194 0.0057509695 0.030834634 0.3746673 -0.039246425 -0.15328509 -0.009906141
-0.09750662 -0.50027066 0.12456618 -0.23858082 -0.058002885 -0.577733 -0.07327923 -0.2563213
-0.3155623 0.06010092 -0.0064832442 0.065385446 -0.023384066 0.032187242 -0.27242422 0.024595832
0.36124086 -0.570574 -0.15790612 -0.044864092 -0.15998381 -0.16267638 -0.19527899 0.55693376
-0.054637615 0.089024425 -0.28855017 0.001158972 -0.059289493 0.17955637 0.41791943 0.09816525
-0.23590256 -0.47356373 -0.073926985 -0.12763712 -0.09556027 -0.023836242 -0.40664557 0.00065059634
-0.10398805 -0.05750587 0.15627386 -0.6294364 0.015817434 0.65754426 0.4165565 0.16940178
-0.30522072 0.45856857 0.14194152 -0.027348166 -0.85405886 0.32005093 0.008953082 -0.029064192
-0.31058908 -0.1913977 0.41613603 -0.20376886 -0.060653817 0.36890408 -0.042653978 -0.30951783
-0.023067951 -0.2746693 0.43916538 -0.23426808 0.44693577 0.0061781555 -0.0066437004 -0.04701759
0.41349685 -0.04445124 0.03130497 -0.0720387 -0.5320666 -0.018872464 -0.098585695 -0.07491974
-0.015249582 0.16105895 0.007196145 -0.34476048 -0.058670226 0.42627037 -0.03755182 -0.048058398
00000000: 918e acbe 8057 263e 5b45 7cbc 7c93 6bbe
00000010: 6fc3 5c3e 0d19 3e3c f9df 4ebe 2e55 5bbd
00000020: 3ed9 eebd 8c71 d0bc cbac 74be da7f cdbe
00000030: 857a 03bf ac20 d9be 17c1 3c3b 2b15 053c
00000040: c8eb 173d a12e aabc a923 5cbe 89e5 ffbc
00000050: 9d8c 95bc a07b 9bbd 661d 053f 5624 afbc
00000060: 92e2 49b9 d5a2 14be 44fa 933e 9621 2bbe
00000070: 662a cd3c 41f4 31be 6058 9c3e e98c 88be
00000080: f87d 3d3e c070 003f 1693 b03e 7dab b8be
00000090: 0980 b7be 53d5 a13a a6de b6bc 7945 3d3d
000000a0: bb70 56be cb68 a6bd 9ddf 05be 35da 3a3c
000000b0: 99da f8be 5c74 dcbe 392a 51be 7a7f 68bd
000000c0: af9c 46be ebd4 aabc f3f2 053e 022e 91bd
000000d0: fce1 8cbc 71ca 5a3e 2d17 c13e 7e42 2dbb
000000e0: bed1 fb3d 371b 9c3e 16cb 9d3e 30f4 123c
000000f0: 3a7b 4cbe 6b7d 2abe e81a 293e ef25 953e
00000100: 7820 6bbc f772 f5bd 8dae 04bf b9a0 babd
00000110: a512 d0b8 f246 86be bb63 bfbc ef82 debe
00000120: acc7 82be 9ed0 4c3e 4dd1 09ba 9aca ae3e
00000130: b72f 0bbf cc37 00bf 9e3f 55be 2d37 70be
00000140: d93f e13e ae49 213f 57a4 9f3e a43f 90bd
00000150: d18d 41be 9d60 fb3e e70e bbbd 2554 18bf
00000160: de51 7a3e ec8b 83bc 6146 3fbf a409 e03e
00000170: f222 723e 9898 1ebd a2b9 0e3d 0b1f 70bc
00000180: d3da 8a3d 5fc3 1cbd 4a4b d33e cf35 3c3e
00000190: 899f 8dbc 9b2b 3a3f f931 7abe 688e c8bd
000001a0: 6d54 433e 4009 a8bc 3697 01be 6a44 d93b
000001b0: d464 0bbd 0c45 2c3e 057d 113f ed19 1bbd
000001c0: 9945 793d ad23 fabe 80f7 123e fb04 ddbd
000001d0: a4f7 6bbc d02d 0abc 8172 42bf abd5 1b3e
000001e0: e1b7 c13e 6758 8fbe 40de 18bc be7f be3a
000001f0: 82d2 bd3c d3cc 0fbf 871c 96bd 23f8 f23b
00000200: 084d 253f 159f 8f3c db04 773e a0a0 64bd
00000210: 3e8e 093e 8a65 b5bc 6761 393e 29b5 3b3e
00000220: 6f52 94bb ae3b 883d e441 4f3f a934 e7bd
00000230: abfd 653c ba70 d4bd a271 99be c5f0 0d3f
00000240: 506e 67be feba dabe 6a43 ffbc 14e4 f4bb
00000250: 74ac 06bf e27b ac3e c039 633e 6785 38be
00000260: 0a95 1ebf fd0e dc3e 1793 a63c f163 74be
00000270: ce2e 04be f6e3 adbd 22ae 273f e425 afbd
00000280: ee92 d9be 6526 3dbd a172 bc3b ea98 fc3c
00000290: 64d4 bf3e dcc0 20bd c4f6 1cbe 5e4d 22bc
000002a0: 8db1 c7bd bd11 00bf 8e1c ff3d 884e 74be
000002b0: 6f94 6dbd 4fe6 13bf 6c13 96bd 8c3c 83be
000002c0: 6291 a1be 622c 763d 6571 d4bb cee8 853d
000002d0: f18f bfbc c5d6 033d 307b 8bbe 337d c93c
000002e0: 90f4 b83e 2311 12bf 24b2 21be 69c3 37bd
000002f0: ccd2 23be a394 26be 37f7 47be 3693 0e3f
00000300: b1cb 5fbd 7052 b63d d9bc 93be a6e8 973a
00000310: 8ad9 72bd a0dd 373e 89f9 d53e dd0a c93d
00000320: 7190 71be f276 f2be 0867 97bd 4eb3 02be
00000330: 1ab5 c3bd 3944 c3bc d933 d0be c88c 2a3a
00000340: b0f7 d4bd 468b 6bbd 4106 203e be22 21bf
00000350: 9093 813c d254 283f e546 d53e a977 2d3e
00000360: e445 9cbe 80c9 ea3e 1e59 113e 4309 e0bc
00000370: 9aa3 5abf b7dd a33e f3af 123c 0718 eebc
00000380: 8805 9fbe c2fd 43be c80f d53e c9a8 50be
00000390: 2370 78bd ffe0 bc3e f0b5 2ebd 1f79 9ebe
000003a0: 00f9 bcbc 74a1 8cbe 49da e03e f9e3 6fbe
000003b0: c4d4 e43e 2072 ca3b 66b3 d9bb 8495 40bd
000003c0: dcb5 d33e 8112 36bd a439 003d 0789 93bd
000003d0: 8435 08bf 6d9a 9abc 4ce7 c9bd 856f 99bd
000003e0: 62d9 79bc a3ec 243e a4cd eb3b 7284 b0be
000003f0: 3150 70bd 1c40 da3e f0cf 19bd e2d8 44bd

linear2.bias f4 [3]
0.18157305 0.14037502 -0.22974017
00000000: 49ee 393e 78be 0f3e 0241 6bbe
